2023-11-07 20:12:56,391 using args:
2023-11-07 20:12:56,391 {'cuda': True, 'mps': False, 'epochs': 20}
2023-11-07 20:12:56,391 Computation device: cuda

2023-11-07 20:12:56,900 VitClassifier(
  (vit): VitNetwork(
    (embeddings): VitEmbeddings(
      (patch_embeddings): VitPatchEmbeddings(
        (projection): Conv2d(3, 768, kernel_size=(16, 16), stride=(16, 16))
      )
      (dropout): Dropout(p=0, inplace=False)
    )
    (layers): ModuleList(
      (0-11): 12 x VitLayer(
        (attention): VitAttention(
          (query): Linear(in_features=768, out_features=768, bias=True)
          (key): Linear(in_features=768, out_features=768, bias=True)
          (value): Linear(in_features=768, out_features=768, bias=True)
          (dropout): Dropout(p=0, inplace=False)
          (norm_before): LayerNorm((768,), eps=1e-12, elementwise_affine=True)
          (output_dense): Linear(in_features=768, out_features=768, bias=True)
          (output_dropout): Dropout(p=0, inplace=False)
        )
        (norm_after): LayerNorm((768,), eps=1e-12, elementwise_affine=True)
        (dense_intermediate): Linear(in_features=768, out_features=3072, bias=True)
        (output_dense): Linear(in_features=3072, out_features=768, bias=True)
        (output_dropout): Dropout(p=0, inplace=False)
      )
    )
    (layernorm): LayerNorm((768,), eps=1e-12, elementwise_affine=True)
  )
  (classifier): FeatureClassifier(
    (fc1): Linear(in_features=768, out_features=128, bias=True)
    (fc2): Linear(in_features=128, out_features=2, bias=True)
  )
)
2023-11-07 20:17:20,029 Total training time: 263.13 seconds
2023-11-07 20:17:20,029 Training loss: 0.002, training acc: 100.000
2023-11-07 20:17:20,029 Validation loss: 0.336, validation acc: 91.319
2023-11-07 20:17:20,502 TRAINING COMPLETE
